data/invoice_model_.pt (torch, 266403 bytes, 3 tensors)

weight f4 [71, 500]
0.16658235 0.050841738 -0.23927586 -0.025514154 0.24133717 -0.12540145 -0.02999836 -0.05235921
0.08552658 0.028283564 -0.020641575 0.15150179 -0.0075328196 0.092757076 -0.05488648 0.08719368
-0.015889663 0.17116852 -0.06958565 0.018687505 -0.10257117 -0.01946202 -0.09983886 -0.07790311
-0.061849933 0.026005805 -0.04912979 0.13493782 -0.11842828 0.17598432 -0.1022 -0.08662467
-0.037797228 -0.2706781 -0.039974477 0.043370258 0.012730278 0.10128086 0.08129957 -0.075171344
0.009481265 -0.14912784 -0.05572729 -0.17462966 0.15852018 -0.10922786 -0.026489496 0.021191524
-0.020765396 -0.06678595 0.091980875 0.060941678 -0.047263928 -0.0422049 0.0051882714 0.049327455
0.067037605 0.06549584 -0.06929649 0.17843418 0.060736008 -0.00649448 0.10551669 0.01051107
0.018363299 0.11851364 0.17560524 -0.020256035 0.085641764 -0.048277203 0.12685464 0.106941074
-0.06908275 0.081844896 0.13673735 -0.21881725 -0.18916671 -0.07265323 0.17513858 0.120838
0.084557675 0.025651932 -0.0022479391 -0.050911874 0.10026631 -0.053461876 -0.119070396 -0.05364305
0.13077365 0.14166602 -0.14385217 0.012410104 0.0966254 -0.16563751 0.11857937 -0.1570171
-0.034511253 0.030430872 -0.047796793 -0.027815746 0.061964832 0.06285061 -0.022063347 0.06808695
-0.04938499 0.13458425 0.023199195 0.051908094 0.11323101 -0.06646137 -0.21409833 0.07539541
-0.0546962 0.100796215 0.16513532 -0.07900904 -0.16566636 -0.0068115164 0.117820814 -0.041263334
0.07547457 0.20627888 0.08898837 -0.005620465 -0.0037955162 0.030701304 -0.17503035 0.12738198
-0.21283531 -0.0058977213 0.08995029 -0.02110003 0.0038674744 -0.18517391 0.12979297 0.012084966
-0.082660116 0.07107819 0.0766391 0.09489999 0.012358547 -0.21954392 -0.10691838 0.10783468
-0.005970108 -0.0037428916 0.016027182 -0.082207285 -0.08653117 0.0013269415 0.04373309 0.070441596
-0.050202873 0.09331006 -0.18873604 0.13494895 -0.06286846 0.034428585 -0.030011477 -0.027161516
-0.027942754 0.14495112 -0.081477135 -0.024407996 0.08188274 0.19848527 -0.044294816 -0.07652496
-0.0024995438 0.0034985407 -0.02502354 0.07921819 0.009538444 0.07799412 -0.025586769 0.06940597
-0.11432659 -0.0039208056 0.14900945 0.17650343 -0.06038216 0.049773652 -0.25639227 0.084947415
-0.05420839 0.06156762 0.06452797 -0.057632357 -0.06748325 0.024758771 -0.0045302254 0.08109463
0.1274584 -0.075679995 0.19236612 0.013693391 0.14321837 -0.0079476675 0.044368833 0.06826137
0.051616408 0.015133712 -0.04161011 -0.14678915 0.025113957 0.0049321977 -0.15074424 -0.010656943
0.10581476 -0.17263328 0.05794458 -0.037280574 -0.020748544 0.0809728 0.042317994 -0.018800374
0.112504676 0.008556705 0.20114683 -0.10642442 -0.043525796 -0.08656928 0.03702088 -0.033405192
-0.030271199 -0.12958042 -0.105581455 0.043438945 -0.014483624 0.023811743 0.004759514 -0.13154066
0.018144025 0.020103393 0.17671996 -0.033418067 -0.059133466 0.13697115 0.017080046 -0.12506215
0.059867844 0.02288082 0.0818434 0.018192597 0.09201362 -0.07840611 0.0063448576 0.10945829
0.09375623 -0.016495483 0.103938706 -0.043398157 0.075951755 -0.060124867 -0.062862754 -0.092161804
00000000: 9094 2a3e 6d3f 503d bb04 75be 0f03 d1bc
00000010: 1721 773e 3d69 00be 1fbf f5bc 9c76 56bd
00000020: 8f28 af3d efb2 e73c 8518 a9bc 4923 1b3e
00000030: dfd5 f6bb 6cf7 bd3d a5d0 60bd 9a92 b23d
00000040: 0a2b 82bc cd46 2f3e ec82 8ebd 8a16 993c
00000050: d510 d2bd d06e 9fbc 5178 ccbd aa8b 9fbd
00000060: 5b56 7dbd 200a d53c 523c 49bd 242d 0a3e
00000070: 878a f2bd 3c35 343e 3c4e d1bd 4668 b1bd
00000080: 44d1 1abd 5296 8abe 47bc 23bd 03a5 313d
00000090: a892 503c 576c cf3d 6480 a63d 6ff3 99bd
000000a0: 4f57 1b3c f8b4 18be 4d42 64bd 1ed2 32be
000000b0: 1d53 223e dbb2 dfbd 8000 d9bc d999 ad3c
000000c0: 311c aabc 12c7 88bd 7860 bc3d fb9d 793d
000000d0: d297 41bd 0cdf 2cbd 6002 aa3b 960b 4a3d
000000e0: 034b 893d af22 863d 51eb 8dbd 73b7 363e
000000f0: 52c6 783d a6cf d4bb 2219 d83d 9f36 2c3c
00000100: a16e 963c 47b7 f23d dcd1 333e fcef a5bc
00000110: f364 af3d 51be 45bd 2fe6 013e ec03 db3d
00000120: 427b 8dbd 4c9e a73d e004 0c3e a111 60be
00000130: ebb4 41be 37cb 94bd 8757 333e ea79 f73d
00000140: 932c ad3d 0024 d23c 2952 13bb f888 50bd
00000150: 6c58 cd3d d7fa 5abd 2edb f3bd d1b8 5bbd
00000160: 87e9 053e e610 113e fc4d 13be c053 4b3c
00000170: 8ae3 c53d e19c 29be bed9 f23d 17c9 20be
00000180: ac5b 0dbd 2a4a f93c 92c6 43bd d9dd e3bc
00000190: d6ce 7d3d d2b7 803d 31be b4bc 2c71 8b3d
000001a0: ea47 4abd 74d0 093e 3d0c be3c 959d 543d
000001b0: a9e5 e73d e61c 88bd 983c 5bbe e968 9a3d
000001c0: 1f09 60bd 3f6e ce3d 3c19 293e 7ecf a1bd
000001d0: 71a4 29be 2433 dfbb 0a4c f13d be03 29bd
000001e0: 6992 9a3d c53a 533e 893f b63d e12b b8bb
000001f0: 32be 78bb 4d81 fb3c 283b 33be 6c70 023e
00000200: 80f1 59be ac41 c1bb dc37 b83d f8d9 acbc
00000210: 7475 7d3b 3b9e 3dbe 73e8 043e 0500 463c
00000220: b549 a9bd 7191 913d f6f4 9c3d ed5a c23d
00000230: 817b 4a3c 1fd0 60be 06f8 dabd 6ed8 dc3d
00000240: e5a0 c3bb 4d4b 75bb 704b 833c 4b5c a8bd
00000250: 4137 b1bd c5ec ad3a 7821 333d af43 903d
00000260: 87a1 4dbd 5819 bf3d 0544 41be 0f30 0a3e
00000270: 2ec1 80bd fd04 0d3d a1da f5bc d481 debc
00000280: 34e8 e4bc 116e 143e 7cdd a6bd 47f3 c7bc
00000290: 23b2 a73d b93f 4b3e 7b6e 35bd 1eb9 9cbd
000002a0: 63cf 23bb c647 653b 2bfe ccbc 253d a23d
000002b0: 2247 1c3c 62bb 9f3d 589b d1bc b824 8e3d
000002c0: 0f24 eabd 1a7a 80bb ef95 183e 51bd 343e
000002d0: 4953 77bd 75df 4b3d d945 83be e9f8 ad3d
000002e0: 9e09 5ebd 542e 7c3d 3e27 843d e80f 6cbd
000002f0: a834 8abd e8d2 ca3c 4972 94bb f114 a63d
00000300: 7484 023e 1dfe 9abd a0fb 443e 3f5a 603c
00000310: d6a7 123e ef36 02bc 18bc 353d 9ecc 8b3d
00000320: ba6b 533d 64f3 773c 5d6f 2abd e54f 16be
00000330: c9bb cd3c 469e a13b b35c 1abe 759a 2ebc
00000340: 69b5 d83d c7c6 30be 4c57 6d3d 84b3 18bd
00000350: daf8 a9bc 11d5 a53d a255 2d3d 3e03 9abc
00000360: da68 e63d 6c31 0c3c 6ff9 4d3e 0cf5 d9bd
00000370: 1b48 32bd 3c4b b1bd 35a3 173d e2d3 08bd
00000380: 4efb f7bc bbb0 04be 173b d8bd 09ed 313d
00000390: b94c 6dbc d810 c33c b2f5 9b3b 98b2 06be
000003a0: c7a2 943c dfaf a43c 14f6 343e 62e1 08bd
000003b0: ef35 72bd 2a42 0c3e 74eb 8b3c 4b10 00be
000003c0: fc37 753d 8f70 bb3c 839d a73d a408 953c
000003d0: a371 bc3d 6293 a0bd 86e8 cf3b ab2b e03d
000003e0: 4403 c03d 8921 87bc d1dd d43d 44c2 31bd
000003f0: 988c 9b3d 7e45 76bd 30be 80bd 54bf bcbd

weight f4 [61, 500]
-0.04516655 -0.085100405 0.43640563 0.3781763 -0.37129417 0.011931805 0.2192119 0.106081985
-0.18936916 -0.42729023 -0.20093974 -0.24578217 -0.35414496 0.16250193 0.34407413 -0.060076628
0.2856306 -0.29807532 -0.5041723 -0.28933063 0.26332882 -0.2580817 -0.087776944 0.001986021
0.2606371 -0.002565648 -0.08977165 0.42247772 -0.27979168 -0.49582317 -0.4598128 -0.20568982
0.10480501 -0.010129086 0.039023466 0.41555133 -0.54901844 0.31948635 0.38382602 -0.38197246
0.0095461635 -0.46184555 -0.32911044 0.060865972 0.26129204 -0.20554303 -0.3329133 -0.27415523
-0.15879443 -0.225734 -0.07504466 -0.35530853 0.28097397 -0.083241984 -0.47876325 0.45728913
-0.09156499 -0.11541764 0.31552047 -0.1805022 -0.11728886 -0.21149504 -0.21638861 -0.4123185
0.46348733 -0.39974785 -0.4565195 0.09103599 0.027778147 -0.49556217 -0.4508842 -0.47691658
0.3945407 -0.07924154 0.032128803 0.056876283 0.031563547 -0.10110202 -0.48263165 -0.13750714
-0.330872 0.41880396 -0.2523413 -0.20867811 0.1819061 0.1200674 0.5562597 0.06035793
0.20550156 -0.49245837 0.15832639 -0.5119792 -0.3527822 0.375288 -0.5541786 -0.02671445
0.26138645 -0.08878993 -0.102083325 -0.25307733 0.54088604 0.27510998 0.48364827 -0.43838498
-0.041259173 -0.10133167 0.16535771 0.26311547 -0.26893044 0.20140111 0.27884862 0.37018088
0.24509574 -0.05336301 0.4637657 -0.052065413 0.5323236 0.25394517 -0.20238653 -0.36708295
0.48934588 -0.28213248 0.29848614 0.28907675 -0.43145204 0.18986039 0.3480477 -0.22994688
0.04922382 0.3992685 -0.21608275 -0.028480962 0.3089606 -0.15756772 -0.15295674 0.1466311
0.04771004 0.06727755 0.25027144 0.45581228 -0.064176485 0.30176622 -0.16847518 -0.5188761
0.43212345 0.49678317 -0.12853621 0.07605286 0.2516534 0.10802714 0.37771425 -0.32942894
0.4099917 0.2583596 0.25065964 0.006255524 0.034760013 0.509506 0.18697833 0.21940379
-0.026164848 -0.5508966 0.13040294 0.43179867 -0.29348016 -0.14490719 0.4166646 0.21661954
-0.38076738 -0.4292498 0.30040035 0.37186047 -0.32830232 -0.12155512 0.42348957 0.20779783
0.4878711 0.17320098 0.17654634 -0.18410203 -0.21509121 0.13109022 0.42666015 0.509416
0.22793634 -0.20143697 -0.1633914 0.5414861 0.2910306 0.17465208 -0.09440009 0.43765706
0.084676705 0.43500802 -0.35388362 -0.43092012 0.18147323 -0.07922199 -0.46439487 0.0042504226
-0.06357875 0.20290785 -0.276665 0.3645118 -0.37976786 0.29455265 -0.28845686 -0.3625163
-0.34575233 0.32044148 -0.14370455 -0.03478493 0.47688335 0.43056133 -0.10927574 0.4783112
0.3304901 -0.3930863 -0.29130092 0.4967759 -0.22299875 0.19029729 0.38375482 -0.4295519
-0.03221525 0.2055802 0.3984958 -0.19463599 0.3971909 0.061503474 0.38730216 0.48861688
-0.29511607 -0.35036603 0.39481786 -0.109266564 0.07663558 -0.14574525 0.08472581 -0.36694476
0.3850246 -0.46125636 -0.14549224 -0.31632358 -0.40834284 -0.030128768 0.051176894 -0.5761685
0.33549803 -0.31711248 -0.4527556 -0.367416 -0.49189883 -0.4446417 0.02850966 0.44560683
00000000: 8f00 39bd 1f49 aebd 8f70 df3e 53a0 c13e
00000010: 451a bebe 9e7d 433c 1679 603e 8341 d93d
00000020: fde9 41be c9c5 dabe 26c3 4dbe 52ae 7bbe
00000030: 7d52 b5be e866 263e 7c2a b03e e912 76bd
00000040: 2d3e 923e 549d 98be 7011 01bf 2523 94be
00000050: 09d3 863e 4923 84be 66c4 b3bd e727 023b
00000060: 3a72 853e 6e24 28bb 33da b7bd 004f d83e
00000070: db40 8fbe 89dc fdbe 956c ebbe 5aa0 52be
00000080: 02a4 d63d 77f4 25bc 12d7 1f3d 25c3 d43e
00000090: 798c 0cbf b793 a33e d884 c43e e591 c3be
000000a0: 8367 1c3c 0577 ecbe 2a81 a8be 994e 793d
000000b0: 12c8 853e df79 52be 9d73 aabe 135e 8cbe
000000c0: 029b 22be d026 67be 04b1 99bd 00eb b5be
000000d0: d2db 8f3e c67a aabd 7520 f5be cd21 ea3e
000000e0: 6d86 bbbd 1560 ecbd e68b a13e 92d5 38be
000000f0: 2435 f0bd 2892 58be fa94 5dbe 691b d3be
00000100: 364e ed3e c0ab ccbe edbc e9be 1471 ba3d
00000110: ff8e e33c 53ba fdbe 4bda e6be 692e f4be
00000120: 3d01 ca3e 6349 a2bd 7e99 033d 1bf7 683d
00000130: c748 013d 930e cfbd 7f1b f7be acce 0cbe
00000140: 0e68 a9be 796d d63e e132 81be b7af 55be
00000150: 9845 3a3e e6e5 f53d 0967 0e3f e039 773d
00000160: 006f 523e 8123 fcbe 5020 223e 1211 03bf
00000170: de9f b4be c025 c03e a6de 0dbf 43d8 dabc
00000180: 72d4 853e 7fd7 b5bd 1011 d1bd 5a93 81be
00000190: 8277 0a3f 37db 8c3e bfa0 f73e ff73 e0be
000001a0: 61ff 28bd fb86 cfbd 8853 293e 12b7 863e
000001b0: 40b1 89be 183c 4e3e 3fc5 8e3e 5988 bd3e
000001c0: 61fa 7a3e 2c93 5abd b372 ed3e 8b42 55bd
000001d0: 5c46 083f 1a05 823e 6a3e 4fbe 4cf2 bbbe
000001e0: 8b8b fa3e ab73 90be 2dd3 983e de01 943e
000001f0: 48e7 dcbe c36a 423e 4f33 b23e 3277 6bbe
00000200: eb9e 493d ec6c cc3e cc44 5dbe e850 e9bc
00000210: 1530 9e3e 6f59 21be b1a0 1cbe 7726 163e
00000220: 9a6b 433d d0c8 893d 9423 803e 3a60 e93e
00000230: f66e 83bd 1a81 9a3e c284 2cbe 10d5 04bf
00000240: 493f dd3e 5d5a fe3e ff9e 03be 9ac1 9b3d
00000250: b7d8 803e 553d dd3d c363 c13e e9aa a8be
00000260: 6fea d13e b647 843e 7656 803e 23fb cc3b
00000270: 8460 0e3d fc6e 023f 3f77 3f3e 63ab 603e
00000280: aa57 d6bc 8f07 0dbf 5988 053e b714 dd3e
00000290: 0843 96be 8d62 14be 1055 d53e 83d1 5d3e
000002a0: f1f3 c2be a1c6 dbbe 13ce 993e 7f64 be3e
000002b0: 3e17 a8be e4f1 f8bd a0d3 d83e f4c8 543e
000002c0: 3eca f93e 995b 313e 90c8 343e 3e85 3cbe
000002d0: df40 5cbe 843c 063e 3373 da3e 1669 023f
000002e0: 2568 693e 7e45 4ebe 1350 27be d59e 0a3f
000002f0: f601 953e ffd7 323e d654 c1bd 9614 e03e
00000300: fb6a ad3d 5fb9 de3e 3c30 b5be 90a1 dcbe
00000310: 1ed4 393e 243f a2bd 2ac5 edbe 2147 8b3b
00000320: 9335 82bd 13c7 4f3e 09a7 8dbe 4aa1 ba3e
00000330: ef70 c2be 9bcf 963e 9eb0 93be bd9b b9be
00000340: 7306 b1be e810 a43e 4927 13be a57a 0ebd
00000350: 0e2a f43e 8972 dc3e f6cb dfbd 35e5 f43e
00000360: 0036 a93e 9c42 c9be 6525 95be 6959 fe3e
00000370: c959 64be 4bdd 423e 837b c43e 3aee dbbe
00000380: 23f4 03bd 9e83 523e a407 cc3e a84e 47be
00000390: 9b5c cb3e 11eb 7b3d 784c c63e fe2b fa3e
000003a0: 7419 97be 2d63 b3be 9125 ca3e 26c7 dfbd
000003b0: 1df3 9c3d 3e3e 15be ba84 ad3d 2fe0 bbbe
000003c0: f221 c53e cb29 ecbe ebfb 14be 2af5 a1be
000003d0: 5012 d1be 9bd0 f6bc dd9e 513d c77f 13bf
000003e0: 66c6 ab3e 915c a2be 95cf e7be f31d bcbe
000003f0: 2ada fbbe 14a8 e3be 178d e93c 9426 e43e

bias f4 [61]
-0.88621116 -2.1766505 0.8765398 -0.988296 0.055883054 0.18335164 -0.9679149 1.2119066
-0.1916857 -0.3287463 -0.34225872 7.023182 0.8717779 -0.77041197 -0.0761842 -0.6316769
1.3078786 -0.23692845 -0.93466413 0.6164467 -0.6636295 -1.129093 -0.06481004 0.7674648
3.719272 0.030825246 -2.9205177 -0.27758625 -0.6977182 -0.43103474 -1.0458721 1.0512856
0.15880127 1.6400589 0.5803115 0.5989202 -0.50043565 -0.71146923 -0.63405824 0.7840314
0.40757254 -0.65577555 -0.57980555 -0.041100558 0.41441324 -0.46157724 0.66102535 -0.66058296
0.16735697 -0.29210156 -0.07892344 -0.6259035 -0.029088574 0.28673422 0.05392969 0.6410827
-0.4791494 -0.9024533 -0.13296004 -0.8396702 -0.7221361
00000000: bcde 62bf 3e4e 0bc0 ea64 603f f700 7dbf
00000010: a1e5 643d 88c0 3b3e 45c9 77bf c11f 9b3f
00000020: 4249 44be 6f51 a8be 893c afbe e8bd e040
00000030: d62c 5f3f b839 45bf 7606 9cbd 94b5 21bf
00000040: 9168 a73f 5f9d 72be 2646 6fbf 73cf 1d3f
00000050: 9fe3 29bf 1f86 90bf 20bb 84bd 9378 443f
00000060: 8d08 6e40 3a85 fc3c c3e9 3ac0 c91f 8ebe
00000070: a99d 32bf 96b0 dcbe 23df 85bf 8790 863f
00000080: cd9c 223e 73ed d13f 4b8f 143f d652 193f
00000090: 8d1c 00bf d922 36bf a451 22bf 48b6 483f
000000a0: 59ad d03e e8e0 27bf 236e 14bf 0f59 28bd
000000b0: f92d d43e da53 ecbe f538 293f f71b 29bf
000000c0: a05f 2b3e 568e 95be 9da2 a1bd 363b 20bf
000000d0: 294b eebc d4ce 923e 61e5 5c3d ff1d 243f
000000e0: 1253 f5be 2e07 67bf ad26 08be a0f4 56bf
000000f0: e9dd 38bf
